output/nsl_model.pth (torch, 68717 bytes, 6 tensors)

network.0.weight f4 [128, 41]
0.21035069 0.34523457 -0.06394727 -0.5576528 0.028594548 -0.9696621 -0.036028553 0.3047601
0.03134598 -0.08156943 0.17487732 -0.019739708 -0.46668345 0.118736744 0.13136035 -0.22183727
-0.39900884 0.053948924 0.12674944 -0.11659776 0.22031571 -0.06936341 -0.0006811681 0.29188344
0.35571066 0.42633963 0.3173434 0.013578344 -0.53555316 -0.2955716 -0.031610932 -0.22011706
0.21032785 0.033632677 -0.23878665 -0.71669835 -0.19930342 0.6554569 0.26640117 0.23614837
-0.19592023 -0.073849045 -0.45655823 -0.036906544 -0.18700027 -0.036129154 -0.6162093 -0.00822359
0.01086599 -0.03252975 0.090056226 0.0022091242 -0.25922203 -0.36213517 -0.056905165 0.008843965
0.0058972333 -0.33727634 0.009158909 -0.0058931606 -0.15330751 0.1256185 -0.09043054 0.5905279
0.27450994 0.22889991 0.30304474 -0.039886456 0.013673179 -0.07756516 -0.37951514 -0.10141326
0.479852 0.24471733 0.2379396 -0.48465258 -0.13673255 0.50864404 0.45376015 0.34046122
0.5920787 0.040440686 0.25231647 -0.02204664 -0.2175943 -0.07938893 0.21233557 -0.514391
-0.02463432 -0.14609 0.026986957 -1.063868 -0.020434465 -0.12475637 -0.3124718 -0.21437374
-0.31207892 0.39309883 0.24776062 0.09408217 0.21085791 0.12887606 0.0885081 -0.016359536
0.05341433 0.44689775 0.047031224 -0.22594735 0.26752275 -0.054149203 0.32936662 -0.01198567
-0.011434369 0.002145854 0.28376767 -0.38499674 -0.08892004 0.06572982 -0.19822034 0.40972373
-0.16045271 0.031048656 0.021167636 0.0867989 0.29059014 -0.61656386 0.14957456 0.046014488
-0.17762297 -0.03871982 -0.20906253 -0.029529613 -0.99491584 0.029747479 0.07474241 -2.155768
0.010929043 0.039352283 1.4021312 0.008393009 0.023740223 -0.20943657 -0.025320377 0.33736733
-0.05675972 -0.116482 -0.16622424 0.00553333 0.1363259 -0.21527447 -0.15992007 0.01882854
0.07917203 0.07866697 0.04996673 0.25357077 0.05417878 0.334831 -0.20981266 -0.1583084
0.040056054 0.27586752 -0.9609291 0.12032752 0.38974622 -0.41498688 -0.23043245 -0.2301341
0.20425038 -0.911242 0.0040499824 0.33637655 0.10147002 0.022756223 -0.043875493 -0.31276006
-0.17568839 0.017257093 0.1377566 0.039498184 -0.01238956 0.12408716 0.070104934 0.06833107
0.47494552 0.08443568 0.4061323 0.28816122 0.076084144 0.18548639 0.07819797 -0.17016454
-0.19796222 -0.12812972 0.043714322 0.9958298 0.64328694 0.1750396 -0.15253714 -0.54529864
0.15890148 0.50583845 0.21693003 0.030688 -0.15734784 -0.14929974 -0.2845335 -0.18192703
0.15706754 0.15006521 -0.5785861 -0.26352465 -0.10111651 -0.09068964 -0.09553557 -0.02459547
0.103254765 0.22538029 -0.1682793 -0.1422265 0.38098004 -0.15077522 -0.14591411 0.19509497
0.027960097 -0.05639505 -0.34145716 0.3290596 0.45750862 0.07389923 -0.017852008 -0.06319379
-0.039449085 0.32337627 0.110558316 -0.109437495 0.17215876 -0.25275633 0.43130213 -0.87832487
-0.2286421 -0.13909017 0.46861193 0.18185255 0.5338354 0.05431521 0.15380079 -0.076606095
0.35299638 -0.026572064 -3.4209535 0.024938067 -0.07173956 -0.17847033 -0.017194606 -0.4856645
00000000: 2c66 573e 96c2 b03e c9f6 82bd 55c2 0ebf
00000010: 1d3f ea3c c63b 78bf ad92 13bd 8409 9c3e
00000020: a464 003d e00d a7bd 0a13 333e 2bb5 a1bc
00000030: 22f1 eebe 402c f33d 5483 063e 4f29 63be
00000040: e34a ccbe 8cf9 5c3d 9bca 013e ceca eebd
00000050: 719a 613e 670e 8ebd 6b90 32ba bf71 953e
00000060: b51f b63e 3049 da3e d67a a23e b477 5e3c
00000070: 031a 09bf 2955 97be 777a 01bd 5e66 61be
00000080: 2f60 573e 6bc2 093d 7d84 74be 8b79 37bf
00000090: 3216 4cbe 06cc 273f bc65 883e e1d0 713e
000000a0: 509f 48be 2b3e 97bd 00c2 e9be 512b 17bd
000000b0: 007d 3fbe 2afc 13bd e5bf 1dbf 3dbc 06bc
000000c0: 4407 323c ea3d 05bd 666f b83d f4c6 103b
000000d0: c0b8 84be c869 b9be 6415 69bd 47e6 103c
000000e0: 943d c13b 7caf acbe 400f 163c 6a1b c1bb
000000f0: a5fc 1cbe 23a2 003e a633 b9bd d62c 173f
00000100: 918c 8c3e bd64 6a3e ae28 9b3e fb5f 23bd
00000110: 7805 603c 7cda 9ebd cf4f c2be c1b1 cfbd
00000120: 29af f53e 2e97 7a3e 70a6 733e 6224 f8be
00000130: 9e03 0cbe 7f36 023f 4053 e83e ef50 ae3e
00000140: 7892 173f 22a5 253d a02f 813e 289b b4bc
00000150: 0ad1 5ebe aa96 a2bd 7f6e 593e 21af 03bf
00000160: eacd c9bc 9e98 15be c013 dd3c d42c 88bf
00000170: 2e66 a7bc 4580 ffbd 4efc 9fbe ca84 5bbe
00000180: cfc8 9fbe 4044 c93e f6b4 7d3e 27ae c03d
00000190: 23eb 573e 16f8 033e bc43 b53d 6f04 86bc
000001a0: fcc8 5a3d c8cf e43e d0a3 403d be5e 67be
000001b0: bef8 883e 8ecb 5dbd bea2 a83e 8b5f 44bc
000001c0: 3857 3bbc 75a1 0c3b ff49 913e 4b1e c5be
000001d0: b61b b6bd 5b9d 863d 46fa 4abe 4fc7 d13e
000001e0: b74d 24be c059 fe3c c067 ad3c 9fc3 b13d
000001f0: 3bc8 943e 21d7 1dbf 132a 193e b079 3c3d
00000200: cce2 35be ad98 1ebd 7d14 56be 16e8 f1bc
00000210: ceb2 7ebf fcb0 f33c 8c12 993d 1af8 09c0
00000220: bb0f 333c dc2f 213d 0979 b33f d582 093c
00000230: db7a c23c 8a76 56be ae6c cfbc 69bb ac3e
00000240: e17c 68bd 1d8e eebd b036 2abe f050 b53b
00000250: 0499 0b3e e970 5cbe 16c2 23be 4f3e 9a3c
00000260: f224 a23d 261c a13d eaa9 4c3d 07d4 813e
00000270: 92ea 5d3d f86e ab3e 21d9 56be 991b 22be
00000280: d111 243d 823e 8d3e 73ff 75bf 466e f63d
00000290: d18c c73e 2979 d4be 7cf6 6bbe 46a8 6bbe
000002a0: 0327 513e 2847 69bf b7b5 843b 8c39 ac3e
000002b0: 84cf cf3d 426b ba3c cab6 33bd 1622 a0be
000002c0: a8e7 33be bf5e 8d3c 1110 0d3e d9c8 213d
000002d0: 95fd 4abc 6921 fe3d 2d93 8f3d 29f1 8b3d
000002e0: 0f2c f33e 9dec ac3d 93f0 cf3e de89 933e
000002f0: 01d2 9b3d 25f0 3d3e 4226 a03d 9d3f 2ebe
00000300: 9cb6 4abe 7034 03be ca0d 333d b4ee 7e3f
00000310: 74ae 243f 953d 333e b232 1cbe b198 0bbf
00000320: 12b7 223e a17e 013f e822 5e3e 6765 fb3c
00000330: cb1f 21be 08e2 18be 60ae 91be 144b 3abe
00000340: 50d6 203e b2aa 193e 381e 14bf b4ec 86be
00000350: 2c16 cfbd 7dbb b9bd 27a8 c3bd 707c c9bc
00000360: 3c77 d33d 17ca 663e 6951 2cbe d3a3 11be
00000370: d10f c33e d264 1abe 826a 15be fac6 473e
00000380: 930c e53c 7ffe 66bd 79d3 aebe 807a a83e
00000390: 923e ea3e 7b58 973d 603e 92bc bf6b 81bd
000003a0: 5d95 21bd 9391 a53e 666c e23d c420 e0bd
000003b0: 634a 303e 4769 81be a2d3 dc3e e6d9 60bf
000003c0: 2821 6abe a76d 0ebe e7ed ef3e 8e37 3a3e
000003d0: 70a9 083f a079 5e3d f47d 1d3e a8e3 9cbd
000003e0: f1bb b43e a8ad d9bc e7f0 5ac0 eb4a cc3c
000003f0: 31ec 92bd edc0 36be b4db 8cbc 04a9 f8be

network.0.bias f4 [128]
-0.3685356 -0.10420153 -0.22562249 -0.14163433 -0.24383408 0.22005077 -0.009087129 -0.21272928
-0.5799612 -0.010584279 -0.2895893 -0.08028405 -0.47438484 -0.22457087 -0.22924843 -0.42451972
-0.45158243 -0.5980906 -0.6970054 -0.3943217 0.008676423 -0.41639078 -0.46642542 -0.76544285
-0.07200897 -0.2589618 -0.5340167 -0.31880403 -0.5293438 -0.10626054 -0.22111335 -0.6543158
-0.12261976 -0.22862163 -0.06253954 -0.4572484 -0.17912593 -0.2387621 -0.1807573 0.012077693
-0.0924779 -0.28324825 -0.054641407 -0.09408537 -0.30519855 -0.2930399 -0.015477609 -0.41285542
-0.32239267 0.37565425 -0.33729866 -0.24390358 -0.12405158 -0.51711756 -0.24385378 -0.2576701
-0.20016429 -0.021206785 -0.3532218 -0.22595975 -0.23926832 -0.35885593 -0.0070259655 -0.41554102
-0.0795561 -0.30367717 -0.057787597 -0.18588649 -0.36892855 -0.038288385 -0.44108412 -0.37635106
-0.12053733 -0.38819835 0.070501365 -0.2203309 -0.5184185 -0.25258735 0.1006236 -0.56979895
-0.43454674 -0.33560225 -0.5235004 -0.31811148 -0.09101506 -0.21675411 -0.360113 -0.26011914
-0.311178 -0.4879529 -0.46358117 -0.2780469 -0.006113137 -0.5212492 -0.2415621 -0.15802404
-0.3465634 -0.2409727 -0.39139947 -0.32065964 -0.2917665 -0.325365 -0.58446157 -0.19051465
-0.11623657 -0.5646089 -0.20934938 -0.33866358 0.019938014 -0.033244673 -0.53242415 -0.4172053
-0.21217392 -0.27570808 -0.5207534 -0.64203626 -0.3476083 -0.4828225 -0.31979358 -0.37039813
-0.39253256 -0.3619686 -0.20527905 -0.6241816 0.02533742 -0.61999136 -0.5213351 -0.2508127
00000000: b3b0 bcbe 9d67 d5bd 9509 67be 9708 11be
00000010: a4af 79be fd54 613e 2ee2 14bc b4d5 59be
00000020: 5678 14bf af69 2dbc 0c45 94be f76b a4bd
00000030: 92e2 f2be e8f5 65be 1ac0 6abe a65a d9be
00000040: d035 e7be 771c 19bf f26e 32bf 89e4 c9be
00000050: 8e27 0e3c 2c31 d5be 50cf eebe 10f4 43bf
00000060: 7079 93bd a496 84be 52b5 08bf 483a a3be
00000070: 1383 07bf 209f d9bd 8a6b 62be 3e81 27bf
00000080: 1220 fbbd ca1b 6abe bb14 80bd 761c eabe
00000090: ca6c 37be 0d7e 74be 7118 39be 84e1 453c
000000a0: 0e65 bdbd ea05 91be abcf 5fbd d5af c0bd
000000b0: fc42 9cbe 5309 96be cc95 7dbc c961 d3be
000000c0: a710 a5be c155 c03e 69b2 acbe dcc1 79be
000000d0: c10e febd d161 04bf ceb4 79be 56ed 83be
000000e0: def7 4cbe dab9 adbc 7dd9 b4be fe61 67be
000000f0: c102 75be f7bb b7be 123a e6bb cbc1 d4be
00000100: 4fee a2bd 937b 9bbe b0b2 6cbd 0759 3ebe
00000110: 34e4 bcbe 48d4 1cbd c7d5 e1be 16b1 c0be
00000120: 47dc f6bd efc1 c6be 0563 903d 6c9e 61be
00000130: 13b7 04bf 2153 81be bf13 ce3d 58de 11bf
00000140: e97c debe 0fd4 abbe 1f04 06bf 82df a2be
00000150: 1b66 babd caf4 5dbe bb60 b8be 562e 85be
00000160: b952 9fbe f6d4 f9be 835a edbe 2a5c 8ebe
00000170: b650 c8bb 9670 05bf 0e5c 77be 0ed1 21be
00000180: c270 b1be 8cc1 76be 8365 c8be 802d a4be
00000190: 6b62 95be 3e96 a6be 469f 15bf 4616 43be
000001a0: 700d eebd 358a 10bf af5f 56be 5065 adbe
000001b0: 0c55 a33c 912b 08bd f34c 08bf ef9b d5be
000001c0: 1f44 59be 9c29 8dbe 1850 05bf 7d5c 24bf
000001d0: b7f9 b1be 8334 f7be fcbb a3be d3a4 bdbe
000001e0: 07fa c8be f353 b9be ac34 52be 5eca 1fbf
000001f0: 6c90 cf3c c1b7 1ebf 3876 05bf 866a 80be

network.3.weight f4 [64, 128]
0.60337114 0.10295923 0.083573446 -0.39651045 0.24281023 -0.32260713 0.45438233 0.34307596
0.028951177 -0.3589504 0.030660078 -0.20859832 0.32194996 -0.114732586 -0.5666643 -0.42935267
0.07022778 -0.3700232 0.3351575 0.18743685 0.00059610745 -0.06613504 0.020206021 -0.10866985
-0.28530923 -0.16647352 0.04562484 0.39838862 -0.2679703 -0.2748278 0.16814117 0.56218445
-0.52282685 -0.22406143 -0.08253574 -0.13806641 -0.22874568 -0.05274086 0.16565788 -0.10701332
0.1941803 0.09772568 -0.71378434 -0.44359598 0.06705132 0.11843808 0.34400156 -0.57419705
-0.05823215 0.008145507 0.08099525 -0.3555845 0.018127408 -0.009829585 -0.74333674 0.11541709
0.22351849 0.15616277 0.027590748 -0.07191743 -0.23529093 0.036103122 -0.46068838 0.5126475
0.057731867 -0.71317405 -0.20519228 -0.020755202 -0.02197887 0.10089868 0.20607597 0.038616184
-0.4720144 0.27756453 -0.14333072 -0.25898015 0.16230926 -0.08220857 0.11887076 0.09522007
0.65188795 0.115870744 0.30137557 -0.0625112 0.0033096254 -0.05193171 0.11078514 -0.38349125
0.46924898 -0.15995975 0.20387495 0.073209085 -0.36910453 0.260255 -0.14702477 0.045382984
-0.350627 0.010311977 -0.071477614 0.5316848 -0.21949452 -0.10239661 0.04131664 0.16435282
-0.29495156 0.12841924 -0.086905435 0.08235672 -0.06542761 -0.13786082 0.16926964 -0.066116996
0.008651447 0.03635722 0.18124503 -0.12082543 0.07405464 -0.097018376 0.023117336 -0.012976158
0.13969043 0.097540885 0.48864087 -0.1427116 -0.91958934 0.2923557 0.5581551 -0.043267533
0.26039657 0.44193166 0.39322352 -0.060117934 0.32467765 -0.08949388 0.44054955 -0.05249268
0.024721427 -0.5699863 0.0035688896 -0.08446663 0.43811315 -0.20339955 -0.304064 -0.47063938
0.044948827 -0.16797696 0.07459869 0.13460459 0.13799393 -0.10588272 -0.1354758 -0.05790805
0.39583322 -0.036349475 0.3371896 -0.0043136566 0.38066462 -0.017891815 0.20031998 0.38288927
-0.1415957 -0.07670345 0.12607463 -0.53664035 -0.069509804 0.35953867 0.07782804 -0.17738563
-0.04478071 -0.31192818 -0.22892019 0.0015073527 -0.4080981 0.22207557 0.20179407 -0.043716036
0.14661567 0.14470538 -0.08956657 -0.2527697 -0.20551088 0.15663959 -0.36774942 0.26459125
-0.1272344 -0.13305125 -0.12197384 -0.08248245 0.011211173 -0.03835068 -0.24044162 0.5889825
-0.24266516 -0.38788146 0.03996368 -0.3279704 0.34551167 0.11736626 0.11530713 -0.07351535
0.06778602 0.44019827 -0.15005378 -0.022689827 -0.18765609 0.18103062 0.27792513 -0.074442156
0.15824571 0.14228928 0.1183933 -0.12301359 -0.19620271 -0.28401738 0.12353278 0.39503434
0.0667714 -0.13598481 0.1866115 0.31628516 0.1085814 -0.016399113 0.058196403 -0.16404091
0.34216136 -0.48194125 -0.18525244 0.13976671 0.035142623 0.12431241 0.005216565 0.70786464
-0.42415938 0.048194204 0.13919772 -0.12127928 -0.28330442 -0.10038001 0.21311699 0.11483161
-0.13241608 -0.21714604 -0.021676244 -0.14766014 0.044422615 0.021901993 0.01762531 0.020971458
0.18932389 0.14743924 0.04391087 -0.11766581 -0.36788866 -0.07146256 -0.030507687 -0.28251064
00000000: 8876 1a3f 4adc d23d 8e28 ab3d 6b03 cbbe
00000010: 3fa3 783e c32c a5be cda4 e83e a7a7 af3e
00000020: 052b ed3c 59c8 b7be d82a fb3c cc9a 55be
00000030: a0d6 a43e ebf8 eabd e910 11bf 1dd4 dbbe
00000040: 95d3 8f3d ae73 bdbe c499 ab3e 72ef 3f3e
00000050: 1844 1c3a cf71 87bd 1987 a53c 4c8e debd
00000060: 0d14 92be 0978 2abe 1de1 3a3d 98f9 cb3e
00000070: 6733 89be 3bb6 8cbe 332d 2c3e 52eb 0f3f
00000080: fbd7 05bf 5c70 65be 8008 a9bd 4861 0dbe
00000090: 4f3c 6abe cd06 58bd 38a2 293e cd29 dbbd
000000a0: 33d7 463e 6724 c83d 92ba 36bf 031f e3be
000000b0: 3452 893d aa8f f23d f920 b03e 94fe 12bf
000000c0: d684 6ebd bc74 053c d6e0 a53d 2c0f b6be
000000d0: ee7f 943c 450c 21bc 514b 3ebf cc5f ec3d
000000e0: 08e2 643e 22e9 1f3e fe05 e23c 7249 93bd
000000f0: 1bf0 70be dee0 133d 59df ebbe de3c 033f
00000100: 4078 6c3d 9392 36bf ed1d 52be d006 aabc
00000110: 080d b4bc f8a3 ce3d 9405 533e 012c 1e3d
00000120: dfab f1be f01c 8e3e 4ac5 12be 0c99 84be
00000130: 6634 263e f75c a8bd 8372 f33d bd02 c33d
00000140: 21e2 263f a44d ed3d e64d 9a3e df05 80bd
00000150: 4de6 583b 58b6 54bd 52e3 e23d f758 c4be
00000160: 6741 f03e 7dcc 23be 98c4 503e a5ee 953d
00000170: 45fb bcbe 2540 853e a98d 16be 82e3 393d
00000180: 6285 b3be 91f3 283c db62 92bd 7f1c 083f
00000190: 2cc3 60be 50b5 d1bd a33b 293d 1b4c 283e
000001a0: e403 97be 5580 033e 7afb b1bd a4aa a83d
000001b0: e9fe 85bd 632b 0dbe 0555 2d3e 5968 87bd
000001c0: ccbe 0d3c 4feb 143d 4c98 393e 5373 f7bd
000001d0: f6a9 973d 92b1 c6bd 9160 bd3c f499 54bc
000001e0: 020b 0f3e 84c3 c73d 232f fa3e fd22 12be
000001f0: 356a 6bbf a5af 953e 41e3 0e3f 4c39 31bd
00000200: b352 853e de44 e23e 9854 c93e 393e 76bd
00000210: 263c a63e 9148 b7bd b68f e13e 9002 57bd
00000220: 9784 ca3c 9fea 11bf 08e4 693b d7fc acbd
00000230: 5e50 e03e f947 50be 47ae 9bbe a5f7 f0be
00000240: 431c 383d 2702 2cbe 33c7 983d c9d5 093e
00000250: 484e 0d3e 0ad9 d8bd 2bba 0abe fe30 6dbd
00000260: a7aa ca3e 30e3 14bd 1ea4 ac3e 9359 8dbb
00000270: 79e6 c23e db91 92bc ae20 4d3e 100a c43e
00000280: 77fe 10be b316 9dbd b519 013e 4361 09bf
00000290: 285b 8ebd 7415 b83e 4f64 9f3d 94a4 35be
000002a0: fa6b 37bd 0db5 9fbe 0e6a 6abe 5d92 c53a
000002b0: 3cf2 d0be c767 633e 1ba3 4e3e 960f 33bd
000002c0: 6b22 163e a62d 143e ae6e b7bd 086b 81be
000002d0: 7271 52be 2166 203e a749 bcbe 8178 873e
000002e0: bc49 02be 963e 08be 6ccd f9bd 8fec a8bd
000002f0: 11af 373c 9a15 1dbd 5436 76be 8fc7 163f
00000300: 377d 78be 6698 c6be f5b0 233d bceb a7be
00000310: e8e6 b03e b95d f03d 2526 ec3d 378f 96bd
00000320: 66d3 8a3d ab61 e13e b3a7 19be 04e0 b9bc
00000330: eb28 40be 1760 393e 344c 8e3e 2175 98bd
00000340: 2a0b 223e 48b4 113e 3078 f23d 8dee fbbd
00000350: 5de9 48be ba6a 91be c1fe fc3d f141 ca3e
00000360: 72bf 883d 9a3f 0bbe 1617 3f3e 21f0 a13e
00000370: ed5f de3d 6f57 86bc 5a5f 6e3d 57fa 27be
00000380: c62f af3e 01c1 f6be d1b2 3dbe 011f 0f3e
00000390: b6f1 0f3d 8197 fe3d b8ef aa3b 9e36 353f
000003a0: 6b2b d9be 4967 453d d989 0e3e 4561 f8bd
000003b0: 470d 91be 0994 cdbd 573b 5a3e d62c eb3d
000003c0: 1598 07be 885b 5ebe 6192 b1bc 3834 17be
000003d0: 7df4 353d cf6b b33c f462 903c 56cc ab3c
000003e0: 1fde 413e 50fa 163e e2db 333d c6fa f0bd
000003f0: e75b bcbe f65a 92bd 42eb f9bc 3ca5 90be

network.3.bias f4 [64]
0.19185923 0.39900514 0.20317194 -0.028410787 0.30646434 0.34355095 0.27532429 -0.034199025
0.30636814 0.25532907 -0.0031069494 -0.025700022 0.17951645 0.57928264 0.38136646 -0.12708025
0.1098475 0.36114722 0.2204716 0.2655772 0.11785474 0.26085645 0.708878 0.2964995
-0.035396256 0.2761296 -0.042255882 -0.05908477 0.025217038 0.1559674 0.10499113 -7.277453e-05
0.3065089 -0.069186024 0.057457756 -0.089316696 -0.050907932 -0.14932011 0.18369253 0.10315446
0.5318217 0.12729529 0.105410576 -0.27371722 0.18496601 -0.1537205 0.0675796 0.13230035
0.11865285 -0.07033658 0.21644525 0.054910652 0.2796125 0.16414896 -0.108335726 -0.07404523
0.42311043 0.0043132147 0.47869667 0.68070626 0.26487455 0.3026692 0.62816757 0.14463437
00000000: bf76 443e 674a cc3e 4e0c 503e bdbd e8bc
00000010: e5e8 9c3e e9e5 af3e 4ef7 8c3e 4714 0cbd
00000020: 49dc 9c3e 7eba 823e f69d 4bbb da88 d2bc
00000030: 29d3 373e de4b 143f 7742 c33e 5321 02be
00000040: baf7 e03d 4ae8 b83e 4fc3 613e bcf9 873e
00000050: d35d f13d fa8e 853e 0779 353f c8ce 973e
00000060: aafb 10bd dc60 8d3e 8114 2dbd df02 72bd
00000070: f693 ce3c ebb5 1f3e 9705 d73d 879e 98b8
00000080: bcee 9c3e 67b1 8dbd d358 6b3d aceb b6bd
00000090: d684 50bd 5fe7 18be e519 3c3e a542 d33d
000000a0: 7825 083f b259 023e 80e1 d73d aa24 8cbe
000000b0: bb67 3d3e e868 1dbe 2c67 8a3d be79 073e
000000c0: 4400 f33d a00c 90bd d3a3 5d3e fee9 603d
000000d0: 5f29 8f3e aa16 283e 1fdf ddbd 07a5 97bd
000000e0: eea1 d83e de55 8d3b bb17 f53e c442 2e3f
000000f0: a39d 873e 75f7 9a3e 97cf 203f 081b 143e

network.6.weight f4 [23, 64]
-2.0527146 -0.5823567 -1.0758413 -2.7625256 -1.6219603 -1.4559542 -2.5651133 -2.2482927
0.059237137 -1.8768779 -0.60400754 0.08286307 -0.56593513 0.36720136 0.8248982 -1.2063136
0.14414941 -0.83993155 0.055479195 -3.121667 -0.5822953 0.13419737 0.5734035 -0.0015030463
-1.0948523 -1.3382448 -2.1708434 0.07257194 -0.467435 -1.7442131 0.021795025 -1.022629
-0.4452108 -0.7276983 -0.9985849 -0.36430305 0.15028772 0.13738115 -1.3913928 -1.5199993
-2.482278 -1.1391048 0.08637981 -0.6033809 -0.8377793 -2.2721002 0.13920934 -0.019011002
0.0006611522 -0.33347666 -0.91408193 0.11751846 -0.08375906 -1.2730209 -1.4384024 -0.010418662
0.017253065 -1.2301722 0.900309 -2.0405905 -0.76763624 -1.4035834 0.69261855 -1.5850198
-1.0454222 0.19715647 -3.8562787 -2.9811122 -0.9457256 -0.335514 -2.4335983 -2.5028288
-0.27673241 -2.544603 -0.43476564 -0.38156122 -1.6814506 -1.242127 -1.4588476 -0.5444078
0.20404954 0.027676152 -0.04920277 -2.7538352 -0.4219754 -0.45255283 -1.1334552 -0.011722685
-0.03981274 0.33817986 -1.8207306 0.15055867 -0.56460404 -2.523641 -0.37986892 -0.022000518
-0.32296398 -0.7955887 -1.4700607 -0.195097 -0.4524654 0.020504063 -2.2411897 0.105419695
-2.2226222 -1.0248674 0.030887347 -0.076863416 -0.2509268 -1.1591629 -0.060759436 -0.35700905
-0.5759629 -0.4211348 -1.1168189 -0.196736 0.13935867 -0.60828745 -0.73320466 -0.059219375
-0.0691775 -0.86335576 -2.8822632 -0.22127394 -0.80220354 -2.5703187 -0.536716 -2.6995301
-1.3752561 -0.9421733 -0.6915506 -5.056625 0.043267954 -0.07394258 -3.9236584 -2.871142
-0.41534698 -1.9657073 -0.20057635 -0.4834497 -1.2604758 -0.46072376 -5.1772823 -1.2960478
0.09247603 -0.1352666 -0.29729494 -4.519066 -0.3512582 -0.18622757 -1.8843608 0.0987356
0.07448449 -1.460808 -2.5883007 -0.64358205 -0.061034743 -0.9435035 0.077236414 -1.6063855
-0.17748562 -0.7963971 -0.4450043 -0.14784516 -0.62184536 -0.64179415 -0.4072872 -0.44728455
-1.4024386 -1.5847766 -0.17251986 0.0050558685 -0.21598841 -3.1298869 -0.22760215 0.15751804
-0.4300939 -0.31439406 -0.7524038 -0.49237406 -0.055423833 -0.7139261 -1.0022625 0.27219537
0.11321822 -1.1123798 -2.651567 -0.21856527 -1.4575524 -0.43000647 -0.9299316 -3.1902192
0.4192138 0.24931775 0.28368157 -2.8182425 -1.1424836 -1.0261953 -0.1669791 -1.4891112
-0.14201929 -1.2459428 -0.53804773 -0.9341136 -1.3130085 -1.5680922 0.86754346 -0.45435134
-1.3009481 -0.6480731 -2.4803643 -2.3981054 -0.46482694 -1.2106909 -1.4566625 0.014026395
-0.4374178 -0.4982637 -1.591234 -0.17866652 -0.9156532 0.32700402 -1.4909126 -0.26106295
0.024603218 -0.25212303 0.14426573 -0.8330058 -0.69980794 -0.16486111 -1.4520464 -0.6305261
-1.4898001 -2.340165 -0.8734469 0.02355496 -0.11609895 -1.719229 -1.4848043 0.1277712
-0.15762329 -0.30132687 -0.4548382 0.2202147 -0.8472937 -0.078365415 -0.6715923 0.04534846
-0.8318558 -0.58506006 -2.5573049 -4.166293 -0.60420084 -0.37885588 -1.2083911 0.11006474
00000000: ad5f 03c0 5415 15bf 2bb5 89bf 38cd 30c0
00000010: 659c cfbf b55c babf d12a 24c0 07e4 0fc0
00000020: a4a2 723d 893d f0bf 3da0 1abf 1db4 a93d
00000030: 20e1 10bf d101 bc3e 872c 533f 7c68 9abf
00000040: e79b 133e c105 57bf 273e 633d 64c9 47c0
00000050: 4e11 15bf 096b 093e 92ca 123f dd01 c5ba
00000060: 1f24 8cbf 9b4b abbf 19ef 0ac0 99a0 943d
00000070: a453 efbe 6042 dfbf 7b8b b23c 82e5 82bf
00000080: acf2 e3be 704a 3abf 43a3 7fbf ee85 babe
00000090: 06e5 193e a5ad 0c3e 2919 b2bf 568f c2bf
000000a0: a5dd 1ec0 30ce 91bf e6e7 b03d 2c77 1abf
000000b0: b478 56bf 176a 11c0 e58c 0e3e f6bc 9bbc
000000c0: 2c51 2d3a 74bd aabe 4601 6abf 85ad f03d
000000d0: df89 abbd 59f2 a2bf 921d b8bf 09b3 2abc
000000e0: 4d56 8d3c 4876 9dbf a77a 663f 0999 02c0
000000f0: cf83 44bf 9fa8 b3bf 734f 313f eee1 cabf
00000100: 65d0 85bf 63e3 493e 45cd 76c0 8bca 3ec0
00000110: 131b 72bf 7ec8 abbe 13c0 1bc0 592e 20c0
00000120: dfaf 8dbe c7da 22c0 9a99 debe fe5b c3be
00000130: c639 d7bf 04fe 9ebf 85bb babf 4f5e 0bbf
00000140: 5df2 503e 19b9 e23c d888 49bd d63e 30c0
00000150: 290d d8be 01b5 e7be 0f15 91bf 8110 40bc
00000160: af12 23bd e925 ad3e b30d e9bf 0d2c 1a3e
00000170: e489 10bf 5683 21c0 2e7e c2be 6e3a b4bc
00000180: 895b a5be b3ab 4bbf f32a bcbf 82c7 47be
00000190: 8ba9 e7be 23f8 a73c a76f 0fc0 48e6 d73d
000001a0: 713f 0ec0 db2e 83bf 7607 fd3c 916a 9dbd
000001b0: 7a79 80be 735f 94bf e3de 78bd e4c9 b6be
000001c0: 4e72 13bf fb9e d7be ecf3 8ebf 2975 49be
000001d0: 0ab4 0e3e bab8 1bbf 4db3 3bbf 0490 72bd
000001e0: efac 8dbd e204 5dbf 0077 38c0 a395 62be
000001f0: 365d 4dbf 1a80 24c0 3866 09bf 1ac5 2cc0
00000200: 6408 b0bf 4532 71bf 7609 31bf dfcf a1c0
00000210: bd39 313d 356f 97bd 381d 7bc0 cac0 37c0
00000220: 5ca8 d4be 4c9c fbbf e363 4dbe b886 f7be
00000230: 4557 a1bf fce3 ebbe 4cac a5c0 e5e4 a5bf
00000240: 1364 bd3d 5483 0abe 0b37 98be 309c 90c0
00000250: 1dd8 b3be 71b2 3ebe bc32 f1bf e435 ca3d
00000260: 538b 983d c2fb babf b8a6 25c0 cbc1 24bf
00000270: 91ff 79bd 7289 71bf 202e 9e3d 0a9e cdbf
00000280: cabe 35be aee0 4bbf 9bd7 e3be b964 17be
00000290: 4231 1fbf 9f4c 24bf f387 d0be 7b02 e5be
000002a0: 1c83 b3bf f6d9 cabf 0ca9 30be b3ab a53b
000002b0: 112c 5dbe 1150 48c0 8a10 69be 694c 213e
000002c0: 4535 dcbe 42f8 a0be 899d 40bf 7418 fcbe
000002d0: 1a04 63bd dcc3 36bf 234a 80bf 315d 8b3e
000002e0: f4de e73d 7662 8ebf 46b3 29c0 93cf 5fbe
000002f0: 1491 babf cf29 dcbe ff0f 6ebf 8d2c 4cc0
00000300: 31a3 d63e 274d 7f3e b63e 913e 165e 34c0
00000310: e73c 92bf 5e5a 83bf 92fc 2abe 329b bebf
00000320: 816d 11be 0e7b 9fbf 7fbd 09bf 1222 6fbf
00000330: aa10 a8bf 3fb7 c8bf 5417 5e3f bda0 e8be
00000340: 7885 a6bf 1ee8 25bf 4abe 1ec0 8f7a 19c0
00000350: ccfd edbe ebf7 9abf eb73 babf f7ce 653c
00000360: 3af5 dfbe 6b1c ffbe 8ead cbbf 5bf4 36be
00000370: 4068 6abf 126d a73e 39d6 bebf 0baa 85be
00000380: b08c c93c 4516 81be 65ba 133e de3f 55bf
00000390: 9d26 33bf 5ad1 28be a8dc b9bf 296a 21bf
000003a0: c5b1 bebf 43c5 15c0 379a 5fbf 55f6 c03c
000003b0: 49c5 edbd b20f dcbf 110e bebf 74d6 023e
000003c0: 0068 21be 8447 9abe 8de0 e8be f67f 613e
000003d0: 3de8 58bf 0c7e a0bd 79ed 2bbf 4fbf 393d
000003e0: 80f4 54bf 7fc6 15bf e2aa 23c0 4652 85c0
000003f0: e8ac 1abf 66f9 c1be 8fac 9abf 9f69 e13d

network.6.bias f4 [23]
0.5885556 0.05557674 -0.18072726 -0.014362707 -0.17700757 -0.15214016 0.026789121 0.33664757
0.42177054 -1.0028328 0.022917174 0.30324423 0.9446604 -0.22831796 -0.08388055 -0.1873815
-0.37253723 -0.5611774 -0.60283196 -0.10664447 -1.2509553 -0.02090157 0.72168463
00000000: 94ab 163f 70a4 633d 9110 39be 8f51 6bbc
00000010: 7941 35be a1ca 1bbe dc74 db3c 125d ac3e
00000020: 4ff2 d73e d35c 80bf ccbc bb3c d442 9b3e
00000030: 44d5 713f 2fcc 69be 91c9 abbd f0e0 3fbe
00000040: 33bd bebe 52a9 0fbf 3253 1abf 6a68 dabd
00000050: 4e1f a0bf c539 abbc 53c0 383f
